data/npp_unanno36_sorted256_theta_5_70_8_phi_0_360_16.npy (npy, 904 bytes, 1 tensors)

array f8 [97]
000000 b7 8e 6a cb 60 f3 8e 3f 61 40 15 87 58 32 a2 bf
       0.015112644393702508 -0.03554035805666512
000010 a1 4c 0c c2 9b 64 e1 3f 0b 07 9a 90 9e a3 62 c0
       0.5435313024521699 -149.11310606082438
000020 61 d6 08 b5 83 00 57 c0 2b bd 7c 7b ed 04 f3 bf
       -92.00803876746205 -1.1887030433388854
000030 0f 4b 90 45 98 ee 28 40 b9 88 ef c4 bc b5 a9 40
       12.466005491126934 3290.86869
000040 4e 7f f6 23 a5 7d a0 40 d5 e8 f9 35 ac ce a7 3f
       2110.82254 0.046498662556545924
000050 80 8d 4f 52 83 63 e0 bf 53 b9 4d 6e 4e 94 df bf
       -0.5121475799209492 -0.4934269025024111
000060 e6 4c 93 8b 54 98 02 c0 8e 48 76 68 6d 75 eb bf
       -2.3243800072028646 -0.8580843963884648
000070 40 ba df b1 e5 43 f7 3f 49 c0 1d f2 d0 e8 da 3f
       1.454076475925504 0.4204599728027501
000080 40 14 9d 79 4e 81 de bf f0 6d 9d 96 a4 2a 8c c0
       -0.4766422450669019 -901.3303654002357
000090 e2 d7 73 c9 54 dc c3 bf 63 10 c2 e3 a9 7e e0 bf
       -0.15516147457645874 -0.5154618690871867
0000a0 bf be 08 a2 cf 57 b1 3f 24 1a c7 78 cf 7b e0 3f
       0.0677461405364239 0.5151135786953245
0000b0 64 2b 28 59 30 fe e2 bf 67 d8 7c 2e 42 dc 00 40
       -0.5935289136262836 2.10754810636995
0000c0 b5 99 88 e9 4a 19 54 c0 94 bf 96 1e 8d 7b 50 40
       -80.39519728031048 65.93048824998397
0000d0 41 d8 28 6c b9 57 56 c0 30 69 b0 5f 57 e4 4d 40
       -89.37069229115242 59.783916436327104
0000e0 0d b0 df 98 25 90 58 c0 88 4b 5d 1a 4a d6 4a 40
       -98.25229474873068 53.67413644366667
0000f0 9f 49 ac bb 24 77 48 c0 ce 42 fb 87 05 06 56 40
       -48.9308085051773 88.09408759629443
000100 0d f2 ad a0 85 e7 4c c0 6b 69 a7 02 71 77 54 40
       -57.808765492376644 81.86627260540779
000110 d7 d8 da 2a 3e ac 50 c0 d6 10 a5 eb 70 ea 52 40
       -66.691294397085 75.66314211959556
000120 64 a8 87 8a 7d a9 20 c0 5a a2 00 17 b3 92 59 40
       -8.33103592782954 102.2921807771867
000130 81 11 ee 57 f2 2c 33 c0 21 c5 7d bf 23 8f 59 40
       -19.175572867986833 102.23655688554983
000140 20 87 e8 5c 0c 05 3e c0 a2 b7 d5 fb b6 8b 59 40
       -30.019719893235674 102.18304344054062
000150 7f bb 1a cb ff 7c 3e 40 3d 8b 54 98 91 92 59 40
       30.48827809717795 102.29013641601792
000160 30 30 f8 fe bd a2 33 40 e0 85 5f d8 92 90 59 40
       19.63571160849841 102.25896272018826
000170 da e7 8e 7e b1 95 21 40 12 aa a9 b1 d9 8e 59 40
       8.792369799561062 102.23203698700698
000180 44 34 bc 67 8d 8c 51 40 2d e1 ce 7d 07 60 53 40
       70.19613068942368 77.50045724108777
000190 9e ab b8 fc 0f bd 4e 40 49 ed c6 04 a2 fc 54 40
       61.47705039040669 83.94738883425192
0001a0 23 28 29 87 d3 61 4a 40 8a b6 aa 14 e1 98 56 40
       52.764267821403585 90.38873783751674
0001b0 d1 db 7a 60 00 97 59 40 ab fd 29 db 71 5a 4b 40
       102.35939800260464 54.70659961271607
0001c0 91 a7 04 88 49 62 57 40 f9 54 7b 6c 20 8a 4e 40
       93.5357379956679 61.079114494534174
0001d0 33 ab fa 21 13 39 55 40 ad 93 28 a1 23 dc 50 40
       84.89179276923532 67.43967465365013
0001e0 2a 93 5b ae e8 f8 53 c0 31 6e 64 19 30 21 50 c0
       -79.8892017263685 -64.51856074149761
0001f0 4f 58 f8 01 58 30 56 c0 ff 73 16 bf 7c 1f 4d c0
       -88.75537156345784 -58.24599445911735
000200 38 66 5c aa 7b 66 58 c0 28 75 98 ca 89 fb 49 c0
       -97.60129794143074 -51.965142559473236
000210 0d 1c 42 b0 da 33 48 c0 90 84 ca 89 21 c2 55 c0
       -48.40511134365088 -87.033297012111
000220 bb df 73 82 d6 a6 4c c0 38 1d 46 55 2c 35 54 c0
       -57.3034213128844 -80.8308308777531
000230 25 98 0c 97 d3 8c 50 c0 f6 b6 5d 5e 8c a7 52 c0
       -66.20041443090356 -74.61794242050004
000240 6b 7a 75 33 03 a8 28 c0 58 82 bb 21 43 53 59 c0
       -12.328149421778297 -101.30097239791337
000250 59 a5 89 56 06 2c 37 c0 4b 6b b7 de 18 48 59 c0
       -23.171971710782007 -101.12651794349692
000260 96 a9 2f 47 89 01 41 c0 46 d0 66 13 fc 3c 59 c0
       -34.01200189425724 -100.9528854850806
000270 c2 a2 fb 47 06 47 3a 40 a6 54 b1 d0 bc 52 59 c0
       26.277439593252673 -101.2927743655915
000280 21 3a c3 d4 ba e1 2e 40 db da bc f1 88 55 59 c0
       15.44087853320258 -101.3364834160124
000290 7b 97 5c 4a cf 63 12 40 f3 a3 92 45 35 58 59 c0
       4.59747043790946 -101.37825145073275
0002a0 80 fc 54 68 16 86 4f 40 67 d4 8a 28 3f 79 54 c0
       63.047558824059706 -81.89447988088214
0002b0 0b 94 9b 28 8d 37 4b 40 d8 62 78 71 fe 1e 56 c0
       54.433995319333995 -88.48427998310524
0002c0 aa 83 03 19 ff e9 46 40 9e 82 fd e0 c3 c4 57 c0
       45.82809746429059 -95.07445549733026
0002d0 75 91 fd 0f 75 85 58 40 9d f1 a4 6e 23 14 4c c0
       98.08526992571372 -56.15733130506417
0002e0 54 94 31 94 15 5c 56 40 69 ae a0 e9 52 53 4f c0
       89.43881707040538 -62.65096779199377
0002f0 9b b6 e0 96 0a 37 54 40 4f 78 a3 a5 17 4e 51 c0
       80.86002132362994 -69.22019329990256
000300 50 26 7b 42 5e 28 fe 3f
       1.8848555180469653
