data/unanno36_sorted256_theta_5_70_8_phi_0_360_16.npy (npy, 904 bytes, 1 tensors)

array f8 [97]
00000000: 35d8 863e d64a 8f3f 8b1e 22b0 93e6 a0bf
00000010: c8f9 5a35 7aa7 e13f 9b99 16dc 3ca6 62c0
00000020: 4920 81c8 f6ff 56c0 caeb 5ac1 1e69 f8bf
00000030: afbb dd12 15f4 2840 76a2 3ef0 34b5 a940
00000040: 44f0 8307 4d7e a040 22e7 1490 58e2 a73f
00000050: 55d3 283c 4d73 e0bf f76b 4026 fe0b e0bf
00000060: 9512 6a30 5ada 01c0 ff95 6be3 7a73 ecbf
00000070: 4b5f 2658 5dca fc3f f5a9 4938 488e de3f
00000080: 9359 cab5 b6f4 e3bf a20c cd82 b824 8cc0
00000090: c088 32b1 51ec c2bf 3173 077c 9a59 d2bf
000000a0: d73d 4873 3f5c b13f 5f5f e1bd 756c dc3f
000000b0: 86f3 012d 687c dcbf 02c2 7876 0c68 0140
000000c0: d348 de1e 0820 54c0 4ccb e7b0 5d7c 5040
000000d0: 1ffb 88c6 1b5d 56c0 946e a29e 6ce5 4d40
000000e0: 4627 4887 b094 58c0 ade2 90ac 2bd5 4a40
000000f0: 09f1 c1cf c685 48c0 6cbe efd8 cc06 5640
00000100: 1832 ca05 d3f5 4cc0 eea6 62b1 f978 5440
00000110: ec9d 4bcc 21b3 50c0 4ec2 e09a 52eb 5240
00000120: 2f6b cc83 b1e3 20c0 5dd7 6c30 d693 5940
00000130: c64c 036f a149 33c0 8012 6581 4990 5940
00000140: 1241 6743 9c22 3ec0 c42f 62cc 598c 5940
00000150: 0084 ea8d 605f 3e40 ba7b e95a b094 5940
00000160: 8f48 3376 5585 3340 9899 473f 6792 5940
00000170: 7fe0 27dc 3f5a 2140 24e9 787a 9090 5940
00000180: 88fc 9121 2d86 5140 cf4e aa14 df62 5340
00000190: 7b5a 0b9c 80af 4e40 e48d 2ee3 3cff 5440
000001a0: 4235 4c66 db53 4a40 d7ad bf1d 359b 5640
000001b0: b8a3 70b4 2890 5940 306a e268 7d61 4b40
000001c0: 7a4d 3c09 a75a 5740 9ae4 02bc e78e 4e40
000001d0: c808 8166 9c33 5540 3281 648e 44df 5040
000001e0: 472e 674b 5ffd 53c0 9b9d c00a ca1e 50c0
000001f0: 08ec 5e75 8d34 56c0 2dc5 f47c dc1b 4dc0
00000200: 2198 691c 386a 58c0 3b9b d8ac 07f7 49c0
00000210: 2a36 deb9 033f 48c0 8d11 e960 87c0 55c0
00000220: 3db7 2663 19b2 4cc0 aac1 c299 7f33 54c0
00000230: 350f 614a 5592 50c0 4c47 fb0d 08a6 52c0
00000240: fffb 2ce5 5ad2 28c0 7ce0 317b 9051 59c0
00000250: c705 0fd3 da40 37c0 c43d 169c 8a46 59c0
00000260: cff6 b778 630c 41c0 3f0f 2d5d 363b 59c0
00000270: 9655 8fe3 0b33 3a40 a82a 3770 5a51 59c0
00000280: 3a05 9493 75b8 2e40 02b8 6172 e353 59c0
00000290: ff7f 3b93 df0e 1240 f2c4 2ecf 8856 59c0
000002a0: b213 dd2c 8d7c 4f40 792a fd00 dc77 54c0
000002b0: 4689 6a1e 2c2e 4b40 b1c9 5dff 551d 56c0
000002c0: 6aa2 7e2e f9df 4640 dde7 eac2 4dc3 57c0
000002d0: 230a 4b60 747e 5840 a2eb 094c 770c 4cc0
000002e0: 1eee 871d d356 5640 0f37 632e b94e 4fc0
000002f0: 5dff bfcf 2332 5440 e2b6 f659 c64b 51c0
00000300: 6635 9544 1bac f83f
0.015279458792843406 -0.0330091621881908 0.5516940157029291 -149.19492916502062 -91.99943745241139 -1.5256640961585952 12.476723279540094 3290.6033954213444
2111.1504479628366 0.04664875754174448 -0.5140749144544353 -0.5014639613249291 -2.2316173345919403 -0.8890966836740403 1.7994054263453616 0.4774342107472472
-0.6236222792238543 -900.590093233059 -0.1478368869039226 -0.2867189608785337 0.06781384052759819 0.444119868688622 -0.4450931968238411 2.17580502086662
-80.50049564082592 65.94321844707628 -89.45482028367086 59.79237730914352 -98.32327444120628 53.665395327324724 -49.045129747102756 88.10625289356693
-57.92050239918552 81.89024004587165 -66.7989378679701 75.67691680859681 -8.444713705733731 102.30994806889562 -19.28761953192295 102.25448641653384
-30.135196888645687 102.19298085773977 30.372567052607337 102.3232638626204 19.52083529235875 102.2875517081469 8.67626846300868 102.25881826217352
70.09650458580484 77.54486576682687 61.37111235193603 83.98809127374949 52.65513304444404 90.42511695593508 102.25248442649797 54.76163970046434
93.41644507302217 61.11644697324046 84.80642092324263 67.4885593396655 -79.95894131733176 -64.48108166513559 -88.821133940408 -58.21766626311942
-97.65967474281253 -51.92992172790988 -48.49230120992827 -87.00826285133935 -57.39139975920123 -80.80466312426748 -66.28645572164972 -74.59424161471287
-12.410849725476508 -101.2744434344367 -23.253338996093387 -101.10221006557464 -34.09678563101408 -100.92519311333034 26.199400160306674 -101.27114491832128
15.360272037333392 -101.31075725119447 4.514524746424285 -101.3521001774532 62.973058326671335 -81.87280297015413 54.36072139932598 -88.45837387236567
45.749791919549196 -95.05162117900859 97.97585303619466 -56.097390656322446 89.35663545870236 -62.61502628178106 80.78343576192624 -69.18398140996172
1.542018192197554
